model/keypoint_classifier/keypoint_classifier.tflite (tflite, 6672 bytes, 6 tensors)

dense_9/bias f4 [20]
000000 20 25 c3 3c c4 c5 e3 be 5c ce e2 3e da 6e 98 3e
       0.023821414 -0.4448682 0.44298065 0.29772073
000010 29 c1 9c 3e 9c 31 0a bf 17 c0 63 bc 1b 30 0a 3f
       0.3061612 -0.5398195 -0.013900778 0.53979653
000020 f7 26 37 bf 56 d2 94 bf 56 6b b1 bf 95 d1 7a bf
       -0.7154383 -1.162669 -1.3860881 -0.97976047
000030 1c 5e 2f 3e 42 f2 3c bf b2 6d d9 be e6 0a a2 bf
       0.17125744 -0.73807156 -0.42466503 -1.2659576
000040 52 6d f3 3e ad 57 01 3f dd 63 9e bf 10 b5 9a 3e
       0.47544342 0.5052441 -1.2374226 0.30216265

dense_11/bias f4 [9]
000000 dc 04 0b bf 9f 58 b2 3f 37 9f 9b 3f 03 6f 56 bd
       -0.5430429 1.3933295 1.2157964 -0.052351963
000010 03 e9 e7 3e 62 ec 22 bf 55 c5 94 bf e5 98 14 bf
       0.4529496 -0.6364194 -1.1622721 -0.580458
000020 91 77 9b bf
       -1.2145864

dense_10/bias f4 [10]
000000 cc a0 7b 3d 3f f6 dd 3f 18 5b ed 3e 43 c6 54 bf
       0.061432645 1.7340773 0.46358562 -0.83115023
000010 0c 42 89 3f 15 01 f5 3d b4 ae 47 3e 3a ec 5c be
       1.0723281 0.11963097 0.19500238 -0.21574488
000020 ad 50 ad be 7a e1 4a 3f
       -0.33850613 0.792503

sequential_3/dense_9/MatMul f4 [20, 42]
000000 00 c1 25 3c f4 a3 85 be 43 62 09 be e7 44 e4 bf
       0.010116816 -0.2610165 -0.1341639 -1.7833527
000010 ac 2c 1d bc c3 94 63 bf 1e e1 4f 3e 59 95 30 bf
       -0.00959317 -0.8889887 0.20300719 -0.68977886
000020 fe 2c ff 3e 46 80 48 bf e5 05 06 3e 0c fa f6 bd
       0.49839014 -0.7832073 0.13088186 -0.120594114
000030 7d 68 ae 3e 50 0a 39 bd 6d 8a da 3e d4 51 5f 3d
       0.34064093 -0.04517585 0.42683735 0.054521397
000040 74 30 e7 3e 60 4e 91 3d 2e 28 5b 3e 43 3d 81 bc
       0.45154154 0.07095027 0.21402046 -0.015776282
000050 64 58 b2 be ce 1e 90 3d 61 24 24 bf 22 a5 64 3e
       -0.34833062 0.070371255 -0.6411801 0.22328618
000060 33 5a 52 bf a7 2e 60 3e 6d 56 1d 3d d1 7d a7 3d
       -0.82168883 0.21892796 0.0384125 0.081782945
000070 3e b1 8a be dc a0 34 3d ed b5 34 be ce 80 2e 3e
       -0.2708835 0.04409872 -0.17647524 0.17041323
000080 3b cf 82 bd 72 b9 30 3e c9 8f 5f 3e 2a ac da 3c
       -0.06387182 0.17258242 0.21832193 0.026693422
000090 87 d3 0a be fb c1 de 3c f3 ca 4e be 64 40 0f 3e
       -0.13557254 0.027192106 -0.20194606 0.13989407
0000a0 b5 f7 a1 be 93 43 1b 3e 12 5b dd bd 68 78 36 be
       -0.31634298 0.15162496 -0.10808386 -0.17819369
0000b0 a8 44 14 be 49 e7 05 3f 9f b8 29 be 88 9a 9a 3d
       -0.14479315 0.5230604 -0.16574334 0.07549006
0000c0 1d bf 85 bf a8 ba 04 bd 56 da b2 bf f5 70 a4 bd
       -1.0448948 -0.03240457 -1.3972881 -0.08029357
0000d0 47 63 5f 3e 09 17 ac 3d 33 09 69 3d a0 2b ca 3c
       0.21815215 0.08402831 0.05689354 0.024679005
0000e0 7a a1 fc 3d f9 b2 e5 bc 86 90 1c 3e c1 c3 80 bd
       0.12335487 -0.028039442 0.15289506 -0.06287337
0000f0 91 0f 22 3e fe 06 9a 3d 7c f5 71 3e 34 42 69 3a
       0.1582625 0.07520865 0.23628801 0.00088981097
000100 b2 ad f1 3e 50 b8 52 bd 00 f9 a6 3e 18 22 43 bd
       0.47202832 -0.051445305 0.32611847 -0.047639936
000110 6f ef 2b 3e 78 98 91 3d bd 46 64 3e 41 e1 54 3c
       0.16790555 0.07109159 0.2229261 0.012993158
000120 05 a7 48 3f 23 d1 08 bd 34 e5 38 3f 8d 68 f0 bc
       0.7837985 -0.033402573 0.72224736 -0.029346729
000130 d6 96 b6 3b 0f 6c ca 3d 2f 6a 88 3d 8e 08 51 3d
       0.0055721803 0.09883892 0.06660878 0.05103355
000140 e0 5b b2 3e a1 89 ef bb 94 86 99 3e 61 e9 86 bc
       0.3483572 -0.007310108 0.29985487 -0.016468706
000150 d1 1b 3f be 52 8a 7d be b8 58 95 bd 10 ac d5 3e
       -0.18662955 -0.24759796 -0.072923124 0.41732836
000160 3c 7c 01 bf 63 25 79 3e 65 2d 06 be 7d c4 1f 3e
       -0.5058019 0.24330668 -0.13103254 0.15602298
000170 ef 6c e5 bd 0c 94 31 3e 64 db 56 bf df 6d 00 3f
       -0.11202418 0.17341632 -0.83928514 0.5016765
000180 8f 87 b6 be 69 f4 49 3e ee 3e f1 be f4 da e2 3e
       -0.35650298 0.19722141 -0.47118324 0.44307673
000190 37 a5 99 be 58 7e e9 3e 8f ed 0d bf d3 a5 66 3e
       -0.3000886 0.45604205 -0.5544061 0.22524194
0001a0 03 9f f7 be 03 df 0f 3f e0 9a 99 be 08 36 e2 3e
       -0.48363504 0.56199664 -0.30000973 0.44181848
0001b0 c1 09 32 be f5 7e e4 3e a2 c1 22 bf e0 f5 ff 3e
       -0.17386533 0.4462811 -0.6357671 0.49992275
0001c0 d5 2c 9d be 1e 4d ef 3e ae dd 62 be 9f 1c be 3e
       -0.30698267 0.46738523 -0.22154877 0.3713121
0001d0 42 cc b6 be 49 83 b3 3e 1b 4d 0c bf 30 22 c4 3e
       -0.3570271 0.350611 -0.54805154 0.38307333
0001e0 70 e9 d9 be 88 12 3a 3e 39 a0 bf be 5b 0c 1e 3f
       -0.4256091 0.18171132 -0.37426928 0.617376
0001f0 4d e6 ed be e0 01 91 3e 40 df 96 3e ad 9f 57 be
       -0.46464768 0.28321743 0.294672 -0.21057005
000200 54 c5 ee 3e 20 f4 65 be 02 33 de 3e ff 80 98 be
       0.46634924 -0.22456408 0.4339829 -0.29785916
000210 48 2c e2 3e ca ea be bd 22 89 35 3f f7 b9 22 3d
       0.4417441 -0.09322126 0.70912373 0.03972813
000220 7c b4 41 3f 9c c0 67 3e 02 91 f4 3e 6e b0 bf 3e
       0.7566602 0.22632068 0.47766882 0.37439293
000230 68 48 08 3f 4e da d3 3e ad ad 26 3f 2d 1d d8 3e
       0.53235483 0.4137749 0.6510876 0.4220976
000240 97 87 0c 3f 14 c3 37 3e f4 7c 0e 3f 6d c0 06 3f
       0.54894394 0.1794551 0.55659413 0.5263737
000250 9e e4 28 3e a0 92 ff 3e 12 c4 0d 3f 7c 00 8b 3e
       0.1649346 0.49916553 0.55377305 0.27148807
000260 ff d9 11 3f bc a8 00 3e e7 b3 96 3e 7f 6a d7 3e
       0.5697326 0.12564367 0.2943413 0.42073438
000270 14 1b 04 3f c7 7a 5b 3e 22 af 0d 3f d1 d1 cd 3d
       0.5160382 0.21433555 0.55345356 0.10049785
000280 81 4f a1 3e 47 0f 8a 3e b1 66 9b 3e 0e a4 23 3f
       0.3150597 0.2696478 0.30351785 0.639222
000290 1d eb f7 3e ef 26 eb 3e b9 b8 24 3e 60 ed c9 3e
       0.48421565 0.4592814 0.16086091 0.39438915
0002a0 e0 38 1e 3c 90 7d 94 bd e8 66 09 be 02 91 03 3f
       0.009657115 -0.07250512 -0.13418162 0.5139314
0002b0 32 42 be bd da c7 fb 3d 9b 00 28 bf 57 c7 c3 3d
       -0.092899695 0.12293978 -0.65625924 0.095595054
0002c0 ee 55 a5 bf 1c 6e 3f bd 09 01 2f 3e 6b 00 aa 3d
       -1.2916849 -0.046735868 0.17090239 0.08300861
0002d0 91 c3 81 3c 97 15 49 3d 12 fd 52 bd f1 85 ea 3c
       0.015840324 0.049092855 -0.051510878 0.028628321
0002e0 26 f7 0d be ed 61 b8 3c c4 b0 45 3f e7 87 42 3d
       -0.13863811 0.022507632 0.7722285 0.047492888
0002f0 91 99 a9 3f 50 8a f6 bc 5f b5 e6 3f 1c 56 13 be
       1.324999 -0.03009525 1.80241 -0.14388317
000300 e2 e2 01 40 67 de 19 be 09 ee 14 3f b6 52 b7 3d
       2.0294728 -0.15026246 0.5817571 0.08951323
000310 04 6c 09 3f 4e db 86 3d b9 d7 3f 3f 4e 6f 73 3b
       0.53680444 0.06584798 0.7493854 0.00371452
000320 d7 cb 85 3e 06 47 85 bc 08 02 63 bc c1 2c 1d 3e
       0.2613208 -0.016269218 -0.013855465 0.15349104
000330 6b d8 5d be a0 04 ea 3d 9a 6b 8d be 07 fb 9e 3d
       -0.21664588 0.114266634 -0.27621156 0.077627234
000340 cb b5 89 be cd c1 66 3d aa 99 8c 3e 16 b3 18 be
       -0.2689651 0.056337167 0.27460986 -0.14912066
000350 40 16 2f be fd 96 38 bf 05 d0 57 be d0 3f 9d 3d
       -0.17098331 -0.7210539 -0.21075447 0.07678187
000360 88 cf 68 be 70 7f 29 3d d0 a3 73 be 25 63 85 bd
       -0.22735417 0.0413813 -0.23792958 -0.06513051
000370 32 f2 19 bf 0f 91 ec bc e6 7f b8 be 98 3d 23 3e
       -0.60135186 -0.028877763 -0.3603508 0.15941465
000380 73 8f 3c be f6 b5 a9 3e f2 eb ea 3d 3e eb dd 3e
       -0.18414097 0.33146638 0.11470784 0.43343538
000390 4f 10 a4 bf 10 43 87 bd 8a b4 e5 be af a8 99 3b
       -1.2817477 -0.06604588 -0.44864303 0.004689298
0003a0 68 89 ad be 3e 19 5b 3d 15 00 e4 be 55 48 54 3d
       -0.33893895 0.05349087 -0.44531313 0.051826794
0003b0 e9 ba e1 bf 53 5f 44 be 34 d6 0c bf 29 86 5f bd
       -1.7635165 -0.19176988 -0.5501435 -0.054571304
0003c0 c3 9b dc be 5a 08 7d bd 9a 4a fd be 58 3e 01 bd
       -0.43087587 -0.061775543 -0.4947098 -0.031553596
0003d0 70 bc 01 bf 4a a9 8e be 02 49 7f be 19 14 45 be
       -0.5067816 -0.27863532 -0.24930194 -0.19245948
0003e0 60 95 eb bd 92 5b b8 bd 3f e6 5a 3c 8e be 78 bd
       -0.115031004 -0.09001841 0.013360559 -0.060728602
0003f0 60 e2 81 bd 14 c9 6e 3e 0c 87 ce be 39 3b b8 bf
       -0.06342006 0.23318893 -0.40337408 -1.4393073

sequential_3/dense_10/MatMul f4 [10, 20]
000000 0f f4 64 bf 06 02 eb 3e 17 18 03 bf b8 a3 d7 3e
       -0.89434904 0.4589998 -0.51208633 0.42117095
000010 07 88 a2 3e 1c f7 c4 be bf cb 5b bf 0c 7c 0a 3f
       0.31744406 -0.3846978 -0.85857767 0.5409553
000020 18 e9 7e be 6e df 4b 3e 6c 54 89 3f ab b8 85 be
       -0.24893606 0.1990945 1.0728889 -0.26117453
000030 25 97 42 3e 7d a2 ed 3e 66 43 a7 be fc b0 ce 3e
       0.1900297 0.4641303 -0.32668608 0.40369403
000040 43 ee 92 3d b1 9a 0d 3e cd d4 85 3f 2d 2b b4 3f
       0.07174351 0.13828541 1.0455567 1.4075676
000050 ef 00 23 be 0a 98 f6 be 55 58 7e bf 52 f6 03 bf
       -0.15918325 -0.48162872 -0.99353534 -0.5154773
000060 d5 45 b9 3e 56 6f 81 be ad e3 54 3f 15 5d 54 bf
       0.3618609 -0.25280255 0.83159906 -0.8295453
000070 6d 94 21 bf c2 a7 8a 3d b5 f7 b0 bd d5 0e 3f 3f
       -0.63117105 0.067702785 -0.08640996 0.74632007
000080 50 bc 67 bf e3 3c bf be 1e f1 65 be 6e 3e e5 bd
       -0.9052172 -0.3735114 -0.2245526 -0.11193548
000090 be a1 df be d7 43 85 bd 52 00 36 3f 41 bd 23 bf
       -0.43678087 -0.0650708 0.7109424 -0.63960654
0000a0 96 df 47 bf 88 85 47 bf 00 c6 f2 3e c5 78 c7 be
       -0.7807554 -0.7793813 0.47416687 -0.38959327
0000b0 af 1a d3 bf f4 c5 2d 3f ba 76 3a bd 2f f5 ee be
       -1.6492518 0.6788018 -0.045523383 -0.46671435
0000c0 57 0b 74 3f 22 09 15 3f 55 13 1c 3f 15 a6 19 bf
       0.95329803 0.5821706 0.60967 -0.60019046
0000d0 1b d9 4a 3e b4 c2 38 bf 61 f0 19 3f a0 94 fd 3e
       0.19809382 -0.72172093 0.60132414 0.49527454
0000e0 e3 82 9d 3e 7b 22 13 3f 34 8f 07 3f 03 77 11 3f
       0.3076392 0.5747449 0.52952886 0.5682222
0000f0 04 38 01 be 0b 61 54 bd d9 58 d9 3e ea 2f 96 3e
       -0.12619025 -0.05185036 0.42450598 0.2933343
000100 a0 20 b2 3d f5 0b f8 b9 32 c6 32 bd 94 fe f4 bd
       0.08697629 -0.00047311155 -0.043646045 -0.119626194
000110 63 61 48 3e bd 7c 79 3f 53 f8 8b be 8a 1f 8d bc
       0.195684 0.9745596 -0.27337894 -0.017226953
000120 ee d9 d6 3e e4 cd 5a be 42 19 de be 63 71 81 be
       0.41963142 -0.21367604 -0.43378645 -0.2528182
000130 86 d5 b3 3e 4e 81 93 3f c6 de 88 be 13 76 85 3e
       0.35123843 1.1523836 -0.26732463 0.26066646
000140 31 93 62 3e 9d b8 90 3e a4 b2 70 be 75 73 83 3e
       0.22126462 0.2826585 -0.23505646 0.25674024
000150 59 5a a1 3c 9a f3 ae 3e 9f 95 5c 3e b7 ef 46 be
       0.019696401 0.34170228 0.21541451 -0.19427381
000160 2a ad dc 3e 53 38 b6 3d d4 88 fd be 9b 0b 92 bf
       0.43100864 0.08897462 -0.49518454 -1.1409792
000170 ec 3c 08 3f b6 4e 72 3e 92 af b2 3d 24 bb c6 3c
       0.5321796 0.23662838 0.08724894 0.024259157
000180 19 bc dd 3c 07 cd 10 3f 48 8e 1c bf 84 0e 5a 3f
       0.027067231 0.56562847 -0.61154604 0.851784
000190 60 4e 8d 3f 17 5b 85 3f ea 5b 9c 3e 19 2d d7 3e
       1.1039543 1.0418423 0.30538875 0.42026594
0001a0 db 3b 20 3f cc b9 db 3e 3b 5f c2 3e 3f 15 51 3f
       0.6259133 0.4291519 0.3796328 0.81673044
0001b0 06 6b 17 be 7a 89 26 3e 61 69 ad bd 39 c9 83 bc
       -0.1478692 0.1626338 -0.08467365 -0.016087161
0001c0 00 43 33 bf a0 c7 99 3f c0 78 62 3f 91 07 b9 3e
       -0.7002411 1.2014046 0.884655 0.36138585
0001d0 0e 16 08 3f 76 df b3 3e 69 7e e4 bd fa 93 fe bd
       0.5315865 0.35131425 -0.11156923 -0.12430568
0001e0 74 67 b3 3e dc f3 13 3f f3 36 9d 3f 21 2c 80 3f
       0.35039866 0.57793975 1.2282394 1.0013467
0001f0 ba 7f bc 3f 7c e7 66 3e c6 c1 04 3f 23 79 9e 3f
       1.4726479 0.22549242 0.51858175 1.2380718
000200 1a 0f e0 3e 4b 0f 91 bf 1e 85 19 bf 0d 50 98 3e
       0.43761522 -1.1332792 -0.59968746 0.29748574
000210 bc fd db 3e 86 07 bc 3d f9 a2 9f bd db 3b 84 bf
       0.4296702 0.091811225 -0.077947564 -1.0330766
000220 a9 05 91 3f 3a 08 f9 3e 75 bb 06 3e e0 94 86 3e
       1.1329852 0.4863909 0.13157447 0.26285458
000230 ed c9 c6 3f d7 3d b0 bd cb 69 1b 3e 4b 74 59 3e
       1.5530373 -0.08605545 0.15177076 0.21235768
000240 ef af a9 bd 1f 61 b4 3e 70 71 72 3f db 3b 34 3f
       -0.0828551 0.35230348 0.9470434 0.7040383
000250 e8 e6 4e 3f 87 84 8d 3e ac be e3 3e b8 66 27 3e
       0.80821085 0.27640173 0.4448141 0.16347778
000260 0b dc e3 3e 06 8b 29 3f e2 58 a3 3f a9 6a 9f 3e
       0.44503817 0.6622776 1.27615 0.31136063
000270 7e b3 9e 3e 44 c4 3a bf de 90 bd 3e 11 b0 3c bc
       0.30996317 -0.7295573 0.37024587 -0.011516587
000280 15 e6 9f bd d3 04 b6 3f 8e da 2b be 78 95 af be
       -0.078075565 1.4220222 -0.16782591 -0.34293723
000290 63 1b e2 3e 48 f2 a1 3e 67 9a fe 3d 9e c5 5d bf
       0.4416152 0.31630158 0.12431794 -0.86629665
0002a0 89 c7 ae 3e 5a 02 8b 3f 1d db 65 3f c2 b5 b9 3f
       0.34136608 1.0860093 0.89787465 1.4508593
0002b0 15 2d 08 3f 0e e9 77 3f d5 ea 55 be 31 ae 81 3f
       0.5319379 0.9683999 -0.20890363 1.0131284
0002c0 a4 02 57 be f3 01 b7 be 42 06 3b 3f 67 7f 31 3f
       -0.20997101 -0.35743675 0.73056424 0.69335026
0002d0 52 3c 41 be 25 5c 05 3f cb 45 28 bf 1d a8 44 bf
       -0.18870667 0.52093726 -0.65731496 -0.7681902
0002e0 1f 6d df 3e cc 0b a0 bf 2e 13 7e 3d 26 2b 89 bf
       0.4363794 -1.25036 0.06203001 -1.0716293
0002f0 73 a3 a9 bf 78 54 09 3f d3 52 a4 3d ac 31 b5 3d
       -1.3253006 0.53644514 0.0802361 0.08847365
000300 57 79 86 bf 33 d0 f2 3e 38 60 ff bd fb 09 11 3f
       -1.050578 0.47424468 -0.12469524 0.56655854
000310 fc f3 54 bf b8 47 ab be 4f 38 ac be c2 5b 52 3e
       -0.8318479 -0.33453155 -0.3363671 0.20542815

sequential_3/dense_11/MatMul f4 [9, 10]
000000 5b 85 82 bf 99 d5 a7 3e ac b6 77 bf e5 d8 b7 bf
       -1.0196947 0.3278015 -0.9676311 -1.4363066
000010 f4 99 8d bd c6 6d 25 bd f9 71 ee be 33 56 7e bf
       -0.0691413 -0.04038789 -0.4657133 -0.9935028
000020 14 c3 30 3f 78 4c 96 3f 1c d0 88 bf 9e d3 41 bd
       0.69047666 1.1742086 -1.068851 -0.047320955
000030 02 f1 14 bf a0 e2 84 bf 4b 0c 77 3f f4 62 f6 3e
       -0.5818025 -1.038166 0.9650313 0.4812237
000040 e2 72 ad bf c1 d4 95 3e 8f 8d c0 bf ea 94 c7 3e
       -1.3550684 0.2926388 -1.50432 0.389808
000050 28 e5 31 bf 3a fe c6 3f fd 15 ab bf 2f f2 88 bf
       -0.6949029 1.5546334 -1.3366085 -1.0698909
000060 6b 32 17 bf 31 2f 8b bf ca 0b cc 3e 07 92 80 bf
       -0.59061307 -1.0873777 0.39852744 -1.0044564
000070 e8 1b 28 bf dc 4a 1e bf dc 1e bc 3e bc 5b 81 bf
       -0.6566758 -0.61832976 0.36742294 -1.010612
000080 9b e8 36 3e ea b3 bb bd 6c 81 44 bc ee df 0a bf
       0.1786217 -0.09165175 -0.011993747 -0.5424794
000090 0e 60 0d bf 14 5a c4 bd 00 b8 72 3f 59 57 51 bf
       -0.5522469 -0.095874935 0.9481201 -0.81773907
0000a0 20 c2 f2 3e 47 01 74 be 81 f8 8e 3f 62 69 57 be
       0.4741373 -0.23828612 1.1169587 -0.21036294
0000b0 b0 40 b8 bc 92 dc e6 bf 62 ae ac bf fe fc 37 bf
       -0.022491783 -1.8036063 -1.3490717 -0.7187041
0000c0 2d 87 36 3e a1 9e 6f 3e 56 90 89 3f ca 5e a5 be
       0.17825003 0.23400356 1.0747173 -0.3229888
0000d0 b6 e6 4e bf e2 27 97 3e dd f6 44 bf 86 bf 2b bf
       -0.80820787 0.29522616 -0.76939183 -0.67089117
0000e0 fd 36 08 bf 40 9e 4e bf c6 66 23 3f 9f a8 46 3f
       -0.53208905 -0.8071022 0.63828695 0.77601045
0000f0 e2 9c 14 bf 40 cf d5 be ac 22 e0 3d 0b 7f b8 be
       -0.58051884 -0.41759682 0.10944113 -0.36034426
000100 dc 01 84 bf 9a 1b 68 be 04 96 6d bf 7b 21 9a 3f
       -1.0313067 -0.22666779 -0.9280703 1.2041467
000110 71 a6 3f 3f ff 83 03 bf 00 17 c1 bd f7 c9 83 bf
       0.74863344 -0.51373285 -0.09428215 -1.029601
000120 e2 25 a2 3d 2b 2b 63 bf b0 4c b1 be de 27 85 3e
       0.07917382 -0.88737744 -0.3462882 0.2600698
000130 2c 2f 4c 3f f0 77 0f 3f 30 4c 6a bf cf b8 51 be
       0.7975948 0.56042385 -0.915225 -0.20480655
000140 5b 94 28 3e e4 bf 6f bf 65 7f 1b 3f d7 46 72 3f
       0.16462843 -0.93652177 0.60741264 0.94639343
000150 44 91 25 3f 58 ec 77 be bf 97 2d 3f 90 07 3a bf
       0.6467478 -0.24211252 0.6780967 -0.7266779
000160 4a 76 07 bf a6 58 7b be
       -0.5291487 -0.24545535
